…
                                                                                            1 
的输入张量（不包括批量维度）。本例中设置卷积神经网络处理大小为 (28, 28, 1)的输入张量， 

这正是MNIST 图像的格式。我们向第一层传入参数input_shape=(28, 28, 1)来完成此设置。 

    我们来看一下目前卷积神经网络的架构。 

     >>> model.summary()  
                                                                                           2 
    _________________________________________________________________  
    Layer (type)                      Output Shape          Param #     
     =================================================================  
     conv2d_1 (Conv2D)                 (None, 26, 26, 32)    320         
    _________________________________________________________________  
    max_pooling2d_1 (MaxPooling2D)    (None, 13, 13, 32)    0           
                                                                                           3 
    _________________________________________________________________  
     conv2d_2 (Conv2D)                 (None, 11, 11, 64)    18496       
    _________________________________________________________________  
    max_pooling2d_2 (MaxPooling2D)    (None, 5, 5, 64)      0           
    _________________________________________________________________  
     conv2d_3 (Conv2D)                 (None, 3, 3, 64)      36928       
     =================================================================                     4 
    Total params: 55,744  
    Trainable params: 55,744  
    Non-trainable params: 0 

    可以看到，每个Conv2D 层和MaxPooling2D 层的输出都是一个形状为 (height, width,  

channels) 的3D 张量。宽度和高度两个维度的尺寸通常会随着网络加深而变小。通道数量由传  5 
入Conv2D 层的第一个参数所控制（32 或64 ）。 

    下一步是将最后的输出张量［大小为 (3, 3, 64)］输入到一个密集连接分类器网络中， 
…
                                                                                           6 
代码清单5-2　在卷积神经网络上添加分类器 

    model.add(layers.Flatten())  
    model.add(layers.Dense(64, activation='relu'))  
    model.add(layers.Dense(10, activation='softmax')) 

    我们将进行10 类别分类，最后一层使用带 10 个输出的softmax 激活。现在网络的架构如下。 7 

     >>> model.summary()  
    _________________________________________________________________  
    Layer (type)                      Output Shape          Param #     
     =================================================================  
     conv2d_1 (Conv2D)                 (None, 26, 26, 32)    320         
                                                                                           8 
    _________________________________________________________________  
    max_pooling2d_1 (MaxPooling2D)    (None, 13, 13, 32)    0           
    _________________________________________________________________  
     conv2d_2 (Conv2D)                 (None, 11, 11, 64)    18496       
    _________________________________________________________________  
    max_pooling2d_2 (MaxPooling2D)    (None, 5, 5, 64)      0           
    _________________________________________________________________                      9 
     conv2d_3 (Conv2D)                 (None, 3, 3, 64)      36928       

----------------------- Page 113-----------------------

　96　　第5 章　深度学习用于计算机视觉 

    _________________________________________________________________  
     flatten_1 (Flatten)               (None, 576)           0           
    _________________________________________________________________  
     dense_1 (Dense)                   (None, 64)            36928       
    _________________________________________________________________  
     dense_2 (Dense)                   (None, 10)            650         
     =================================================================  
     Total params: 93,322  
     Trainable params: 93,322  
    Non-trainable params: 0 

    如你所见，在进入两个Dense 层之前，形状 (3, 3, 64)的输出被展平为形状 (576,)的 

向量。 

    下面我们在MNIST 数字图像上训练这个卷积神经网络。我们将复用第2 章MNIST 示例中 

的很多代码。 

代码清单5-3　在MNIST 图像上训练卷积神经网络 

     from keras.datasets import mnist  
     from keras.utils import to_categorical  
…

    model.add(layers.Flatten())  
                                                                                            1 
    model.add(layers.Dense(512, activation='relu'))  
    model.add(layers.Dense(1, activation='sigmoid')) 

    我们来看一下特征图的维度如何随着每层变化。 

     >>> model.summary()  
    _________________________________________________________________                      2 
     Layer (type)                      Output Shape            Param #     
     =================================================================  
     conv2d_1 (Conv2D)                 (None, 148, 148, 32)    896         
    _________________________________________________________________  
    max_pooling2d_1 (MaxPooling2D)    (None, 74, 74, 32)      0           
    _________________________________________________________________  
     conv2d_2 (Conv2D)                 (None, 72, 72, 64)      18496                       3 
    _________________________________________________________________  
    max_pooling2d_2 (MaxPooling2D)    (None, 36, 36, 64)      0           
    _________________________________________________________________  
     conv2d_3 (Conv2D)                 (None, 34, 34, 128)     73856       
    _________________________________________________________________  
    max_pooling2d_3 (MaxPooling2D)    (None, 17, 17, 128)     0                            4 
    _________________________________________________________________  
     conv2d_4 (Conv2D)                 (None, 15, 15, 128)     147584      
    _________________________________________________________________  
    max_pooling2d_4 (MaxPooling2D)    (None, 7, 7, 128)       0           
    _________________________________________________________________  
     flatten_1 (Flatten)               (None, 6272)            0           
    _________________________________________________________________                      5 
     dense_1 (Dense)                   (None, 512)             3211776     
    _________________________________________________________________  
     dense_2 (Dense)                   (None, 1)               513         
     =================================================================  
    Total params: 3,453,121  
    Trainable params: 3,453,121                                                            6 
    Non-trainable params: 0 

    在编译这一步，和前面一样，我们将使用RMSprop 优化器。因为网络最后一层是单一sigmoid 

单元，所以我们将使用二元交叉熵作为损失函数（提醒一下，表4-1 列出了各种情况下应该使 

用的损失函数）。 
                                                                                           7 
…
      类器对应于ImageNet 的1000 个类别。因为我们打算使用自己的密集连接分类器（只有 

               cat   dog 
      两个类别：  和          ），所以不需要包含它。                                           7 
      input_shape是输入到网络中的图像张量的形状。这个参数完全是可选的，如果不传 

      入这个参数，那么网络能够处理任意形状的输入。 

    VGG16 卷积基的详细架构如下所示。它和你已经熟悉的简单卷积神经网络很相似。 

    >>> conv_base.summary()                                                   8 
    _________________________________________________________________  
    Layer (type)                 Output Shape              Param #     
    =================================================================  
    input_1 (InputLayer)         (None, 150, 150, 3)       0           

   a  这里更靠近底部的层是指在定义模型时先添加到模型中的层，而更靠近顶部的层则是后添加到模型中的层，下  9 

     同。——译者注 

----------------------- Page 135-----------------------

　118　　第5 章　深度学习用于计算机视觉 

    _________________________________________________________________  
    block1_conv1 (Conv2D)        (None, 150, 150, 64)      1792        
    _________________________________________________________________  
    block1_conv2 (Conv2D)        (None, 150, 150, 64)      36928       
    _________________________________________________________________  
    block1_pool (MaxPooling2D)   (None, 75, 75, 64)        0           
    _________________________________________________________________  
    block2_conv1 (Conv2D)        (None, 75, 75, 128)       73856       
    _________________________________________________________________  
    block2_conv2 (Conv2D)        (None, 75, 75, 128)       147584      
    _________________________________________________________________  
    block2_pool (MaxPooling2D)   (None, 37, 37, 128)       0           
    _________________________________________________________________  
    block3_conv1 (Conv2D)        (None, 37, 37, 256)       295168      
    _________________________________________________________________  
    block3_conv2 (Conv2D)        (None, 37, 37, 256)       590080      
    _________________________________________________________________  
    block3_conv3 (Conv2D)        (None, 37, 37, 256)       590080      
    _________________________________________________________________  
    block3_pool (MaxPooling2D)   (None, 18, 18, 256)       0           
    _________________________________________________________________  
    block4_conv1 (Conv2D)        (None, 18, 18, 512)       1180160     
    _________________________________________________________________  
    block4_conv2 (Conv2D)        (None, 18, 18, 512)       2359808     
    _________________________________________________________________  
    block4_conv3 (Conv2D)        (None, 18, 18, 512)       2359808     
    _________________________________________________________________  
    block4_pool (MaxPooling2D)   (None, 9, 9, 512)         0           
    _________________________________________________________________  
    block5_conv1 (Conv2D)        (None, 9, 9, 512)         2359808     
    _________________________________________________________________  
    block5_conv2 (Conv2D)        (None, 9, 9, 512)         2359808     
    _________________________________________________________________  
    block5_conv3 (Conv2D)        (None, 9, 9, 512)         2359808     
    _________________________________________________________________  
    block5_pool (MaxPooling2D)   (None, 4, 4, 512)         0           
     =================================================================  
     Total params: 14,714,688  
     Trainable params: 14,714,688  
    Non-trainable params: 0 

    最后的特征图形状为 (4, 4, 512)。我们将在这个特征上添加一个密集连接分类器。 

    接下来，下一步有两种方法可供选择。 
       在你的数据集上运行卷积基，将输出保存成硬盘中的Numpy 数组，然后用这个数据作 

       为输入，输入到独立的密集连接分类器中（与本书第一部分介绍的分类器类似）。这种 

       方法速度快，计算代价低，因为对于每个输入图像只需运行一次卷积基，而卷积基是目 
…
的输出通常被称为该层的激活，即激活函数的输出）。这让我们可以看到输入如何被分解为网络 3 

学到的不同过滤器。我们希望在三个维度对特征图进行可视化：宽度、高度和深度（通道）。每 

个通道都对应相对独立的特征，所以将这些特征图可视化的正确方法是将每个通道的内容分别 

绘制成二维图像。我们首先来加载5.2 节保存的模型。 

     >>> from keras.models import load_model                                               4 
     >>> model = load_model('cats_and_dogs_small_2.h5')  
     >>> model.summary()  # 作为提醒  
    _________________________________________________________________  
     Layer (type)                      Output Shape           Param #     
     =================================================================  
     conv2d_5 (Conv2D)                 (None, 148, 148, 32)   896                          5 
    _________________________________________________________________  
    max_pooling2d_5 (MaxPooling2D)    (None, 74, 74, 32)     0           
    _________________________________________________________________  
     conv2d_6 (Conv2D)                 (None, 72, 72, 64)     18496       
    _________________________________________________________________  
    max_pooling2d_6 (MaxPooling2D)    (None, 36, 36, 64)     0           
    _________________________________________________________________  
                                                                                           6 
     conv2d_7 (Conv2D)                 (None, 34, 34, 128)    73856       
    _________________________________________________________________  
    max_pooling2d_7 (MaxPooling2D)    (None, 17, 17, 128)    0           
    _________________________________________________________________  
     conv2d_8 (Conv2D)                 (None, 15, 15, 128)    147584      
    _________________________________________________________________                      7 
    max_pooling2d_8 (MaxPooling2D)    (None, 7, 7, 128)      0           
    _________________________________________________________________  
     flatten_2 (Flatten)               (None, 6272)           0           
    _________________________________________________________________  
     dropout_1 (Dropout)               (None, 6272)           0           
    _________________________________________________________________  
     dense_3 (Dense)                   (None, 512)            3211776                      8 
    _________________________________________________________________  
     dense_4 (Dense)                   (None, 1)              513         
     =================================================================  
    Total params: 3,453,121  
    Trainable params: 3,453,121  
    Non-trainable params: 0                                                                9 

----------------------- Page 149-----------------------

　132　　第5 章　深度学习用于计算机视觉 

    接下来，我们需要一张输入图像，即一张猫的图像，它不属于网络的训练图像。 

代码清单5-25　预处理单张图像 
…
